hw2/rnn.pth (torch_old, 33363 bytes, 12 tensors)

mfcc_rec.weight_ih_l0 f4 [80, 13]
-0.15303937 0.04561484 -0.088480696 -0.037050545 -0.11008502 0.0007491708 -0.19307026 -0.16429836
0.21595365 -0.17171544 0.025847614 0.22201067 0.058199555 0.13116151 -0.034886464 0.069389135
-0.118617386 -0.030197676 0.044559445 0.03653834 0.043263957 -0.053156037 0.16386703 -0.195072
0.091404766 0.0025297399 -0.017925752 0.16407368 -0.2903032 0.23175575 -0.19226691 0.3614924
-0.27153108 0.08566326 0.11427863 -0.05944889 0.08699144 -0.2061516 -0.25497457 -0.006720909
0.10924812 0.08712674 -0.044325113 0.1495234 0.02948171 0.1557482 0.1536035 -0.1278026
-0.021065567 0.14845638 0.010882674 0.18342957 0.13461286 -0.045713887 0.21951532 -0.2160628
0.07077566 -0.011222288 0.0635339 -0.1635899 0.13230965 0.2006599 0.017180964 -0.016719133
-0.21589169 -0.054345097 0.16915332 -0.121367656 -0.048370056 0.038899574 0.18168873 -0.14608222
0.045259736 -0.08719719 -0.05677274 0.1284344 -0.11602523 -0.16114223 0.18803918 -0.13101241
-0.14488773 0.15978235 0.22416684 0.18876867 0.2316151 0.10924627 -0.18114728 -0.11522605
0.090359755 0.10081809 -0.05074639 -0.17033082 -0.0096037835 -0.20952249 -0.13855988 -0.066401556
-0.21809463 -0.16041641 0.06849328 -0.15240842 0.16818222 -0.12703964 0.043828756 -0.108789615
-0.05858098 0.18597636 -0.11900673 -0.12663549 0.1722269 -0.17115583 0.17064393 -0.012408316
0.06781125 -0.19814172 0.089748174 -0.16197172 -0.13590258 0.035312872 0.28133616 0.0013475411
0.023149624 0.17604268 0.08343158 0.04965455 -0.005558881 -0.032972034 0.038921714 -0.07708458
-0.07128626 0.09720315 -0.21753605 0.047956407 0.20011735 -0.1339419 0.11342028 0.020586967
0.1988138 -0.12750736 0.075938165 0.011216149 -0.10706452 -0.11369043 -0.010799035 0.06515818
0.03393266 0.1766757 -0.030399717 -0.019435968 0.07679498 0.13881645 -0.14219677 0.14527267
0.04010592 -0.0058518406 -0.086221695 -0.010737889 -0.03412047 -0.129431 0.007621126 0.20158963
0.114311114 0.10915719 -0.070232965 0.0052652224 -0.06596155 -0.17644955 0.1429657 0.0054703807
0.1600291 -0.12764475 -0.022032037 -0.15217501 0.12160429 0.12766743 -0.09470096 -0.012663797
-0.20220777 -0.1580352 0.21296856 -0.20162977 -0.016926572 0.04887548 0.14462852 -0.13702214
0.1940873 0.034331203 -0.16811234 -0.03589298 0.1740486 0.09340507 -0.0840856 0.17706034
-0.17527047 0.0838722 0.0007812679 -0.02440841 0.12744883 -0.1062963 0.15966076 0.037411172
0.1791503 -0.09895293 -0.08859412 0.07956203 -0.089760356 -0.04307599 0.09477435 0.043992843
-0.09175227 0.043758694 0.15189272 -0.15498209 0.1997121 -0.20930786 0.19441953 0.33197248
-0.15007627 0.12660085 0.17338336 0.28351218 0.008388824 -0.13445039 0.21804053 -0.08072956
0.036686897 0.14777184 -0.17524306 0.117459655 -0.17645794 0.025892958 -0.1284606 0.19311991
0.061001003 -0.083817095 -0.06107427 0.20614386 0.09066707 -0.17161663 -0.14502048 -0.10620833
-0.13788489 0.09101832 -0.19596015 0.09271553 -0.17580692 0.028827071 -0.088113144 -0.064408615
0.06665178 -0.17441405 0.12195886 0.04744701 0.19350304 0.010826755 0.21355514 0.16191284
00000000: 5ab6 1cbe a0d6 3a3d 5e35 b5bd 50c2 17bd
00000010: 4174 e1bd 0064 443a 36b4 45be d43d 28be
00000020: f422 5d3e 2cd6 2fbe 60be d33c c456 633e
00000030: a862 6e3d 344f 063e 1ce5 0ebd e41b 8e3d
00000040: aced f2bd 1e61 f7bc f783 363d 3aa9 153d
00000050: 8c35 313d 25ba 59bd c2cc 273e f4c0 47be
00000060: 6c32 bb3d fec9 253b 07d9 92bc ee02 283e
00000070: 9fa2 94be 6151 6d3e 9ee1 44be 8815 b93e
00000080: 1f06 8bbe 3870 af3d ea0a ea3d ae80 73bd
00000090: 9128 b23d 6819 53be 078c 82be 123b dcbb
000000a0: 7abd df3d 816f b23d 408e 35bd aa1c 193e
000000b0: a183 f13c 757c 1f3e 3c4a 1d3e afde 02be
000000c0: b291 acbc f304 183e 3e4d 323c f6d4 3b3e
000000d0: f4d7 093e 7c3e 3bbd a0c8 603e 913f 5dbe
000000e0: d4f2 903d b0dd 37bc 101e 823d 1c84 27be
000000f0: 2e7c 073e ca79 4d3e 18bf 8c3c 90f6 88bc
00000100: b612 5dbe f798 5ebd 8736 2d3e 9b8f f8bd
00000110: ae1f 46bd 2955 1f3d 9c0c 3a3e 9496 15be
00000120: 4662 393d 7194 b2bd 888a 68bd 4f84 033e
00000130: a39e edbd 7802 25be 588d 403e 1e28 06be
00000140: 735d 14be fc9d 233e fe8b 653e 934c 413e
00000150: 822c 6d3e 82bc df3d ac7e 39be a3fb ebbd
00000160: 890e b93d b779 ce3d 72db 4fbd 346b 2ebe
00000170: 3059 1dbc 108d 56be a4e2 0dbe 8afd 87bd
00000180: 3354 5fbe 3344 24be 3446 8c3d f410 1cbe
00000190: f637 2c3e ae16 02be c885 333d 17cd debd
000001a0: 9cf2 6fbd 9670 3e3e cdb9 f3bd bcac 01be
000001b0: 405c 303e 7943 2fbe 48bd 2e3e 404c 4bbc
000001c0: a0e0 8a3d aae5 4abe e4cd b73d eadb 25be
000001d0: 0c2a 0bbe 3ba4 103d 4b0b 903e fa9f b03a
000001e0: 48a4 bd3c 8844 343e 2dde aa3d 9262 4b3d
000001f0: 4627 b6bb af0d 07bd 606c 1f3d 85de 9dbd
00000200: 88fe 91bd 7212 c73d c5c1 5ebe f06d 443d
00000210: 90eb 4c3e 1128 09be e448 e83d 00a6 a83c
00000220: d895 4b3e 4a91 02be 7885 9b3d f0c3 373c
00000230: a544 dbbd 87d6 e8bd 70ee 30bc a771 853d
00000240: f9fc 0a3d 7aea 343e d408 f9bc 2e38 9fbc
00000250: b046 9d3d e625 0e3e 089c 11be 5cc2 143e
00000260: 1b46 243d ccc0 bfbb 0095 b0bd f9ed 2fbc
00000270: e8c1 0bbd 8f89 04be a3ba f93b 836d 4e3e
00000280: f21b ea3d ce8d df3d 4dd6 8fbd e387 ac3b
00000290: d916 87bd 31af 34be 9a65 123e e140 b33b
000002a0: abde 233e 4eb5 02be 887c b4bc c4d3 1bbe
000002b0: ac0b f93d 40bb 023e 94f2 c1bd d07b 4fbc
000002c0: 8e0f 4fbe fbd3 21be 6e14 5a3e 0978 4ebe
000002d0: 98a9 8abc a831 483d 8019 143e 884f 0cbe
000002e0: d2be 463e e09e 0c3d a425 2cbe 8404 13bd
000002f0: cc39 323e 284b bf3d 1235 acbd 4e4f 353e
00000300: 1a7a 33be 30c5 ab3d 00ce 4c3a 25f4 c7bc
00000310: f281 023e e0b1 d9bd 1c7e 233e 753c 193d
00000320: 2d73 373e d5a7 cabd d670 b5bd 6bf1 a23d
00000330: 47d4 b7bd 7370 30bd 0e19 c23d d731 343d
00000340: 9de8 bbbd 513c 333d c489 1b3e a0b3 1ebe
00000350: 5481 4c3e cd54 56be ea15 473e 4cf8 a93e
00000360: 98ad 19be a7a3 013e 688b 313e 8228 913e
00000370: 4771 093c 5dad 09be 0446 5f3e 8a55 a5bd
00000380: 0045 163d 8051 173e eb72 33be b08e f03d
00000390: 64b1 34be 781d d43c 2d8b 03be 3ac1 453e
000003a0: 30dc 793d 4ca8 abbd 0429 7abd 6017 533e
000003b0: a8af b93d 45bc 2fbe 4080 14be c183 d9bd
000003c0: b231 0dbe d067 ba3d c7a9 48be a4e1 bd3d
000003d0: bb06 34be c026 ec3c aa74 b4bd aae8 83bd
000003e0: ba80 883d 9999 32be 91c5 f93d cc57 423d
000003f0: a925 463e b462 313c 33ae 5a3e 7bcc 253e

mfcc_rec.weight_hh_l0 f4 [80, 20]
0.19884115 0.18133646 0.12849817 0.038264573 0.05691141 0.08103976 -0.13577148 0.19736356
-0.21270555 -0.03205374 0.06610501 0.071029514 -0.102016725 -0.100222 -0.08023098 -0.06779814
-0.07453504 0.13506612 -0.12678482 0.12325561 0.16345239 0.03489718 0.118635535 -0.04036048
0.06003365 0.0741159 -0.20954351 -0.032002196 0.01983732 0.13015988 0.0071338415 0.21597087
-0.020998135 0.10222304 -0.0962815 -0.19994436 -0.20913579 0.113295406 -0.1769012 -0.08553617
-0.18422097 0.03953749 0.04721716 -0.14282694 0.22093064 -0.021943122 -0.16979736 0.19756156
-0.092400596 -0.11856552 0.00819926 -0.12705605 -0.1188207 -0.088195935 0.107411176 -0.053215966
0.08130753 0.06916079 -0.04109244 0.15480417 -0.08714156 -0.0130613595 -0.19727455 0.0946354
-0.15399761 0.007572919 -0.16589287 0.19416368 -0.18504368 -0.03647475 0.16114664 -0.13412762
-0.055459186 0.12689736 -0.2003876 0.01723212 -0.029617682 0.13714322 0.154271 -0.018991128
-0.048529655 -0.1259399 -0.06791934 0.16302544 0.028881818 -0.1840806 -0.052899733 0.15256149
0.094319135 -0.19812208 0.15099388 0.12525824 0.117399246 -0.011580437 0.117637396 0.122543216
0.06833908 -0.00085859 0.007980749 0.16748512 0.053341866 -0.14587411 0.096282184 -0.06902534
-0.18467379 0.05242008 0.18302402 0.07936609 -0.094075024 -0.06273419 0.18860084 0.011095345
0.12199932 0.038931727 0.009060636 0.0104803145 -0.087900445 0.20667443 0.19595635 0.05751568
-0.029615223 0.15403599 0.14937437 -0.11073174 0.19144332 -0.121708505 -0.08055243 -0.17383997
0.003748849 0.07058051 -0.14126319 -0.12665504 0.13154867 0.12100172 0.15872937 0.1938996
0.020134062 0.08485341 0.1626262 0.071997434 0.19300473 0.11984256 0.0116712 -0.123253375
-0.21170956 0.033236265 0.085742205 -0.06510767 -0.16948737 -0.027513802 -0.13124952 0.0948011
0.066746056 -0.0058683157 0.10834733 -0.13534206 0.03687516 0.13661468 -0.18282253 0.18618369
0.15429685 0.011750683 0.16480735 0.045451254 -0.12705556 0.20543271 -0.13606532 -0.1601702
-0.08413097 -0.014248669 0.01973638 -0.03639257 0.12523115 0.20401844 0.033233523 0.0014862269
-0.007084176 -0.015431166 -0.13598311 0.16674972 0.09557846 0.16893828 -0.06383589 -0.17507303
0.1982162 0.14527857 -0.012928754 -0.085722074 0.01735495 0.16371408 -0.07895069 -0.14871696
-0.14345887 0.21456966 -0.1690628 0.041287035 0.20420852 -0.20690607 -0.07529144 0.22296536
0.123027414 0.032056183 0.0015348494 -0.20159744 -0.22188959 0.0906502 0.17536595 -0.21472657
-0.14617187 -0.09102763 -0.08285582 -0.074671075 -0.16643354 0.10650602 0.08300573 0.16856873
-0.20741624 0.014061764 0.10254347 -0.060768396 0.001892209 0.011802241 0.069957584 -0.14511871
-0.16444367 0.017304167 -0.023048699 0.13407728 0.15838799 0.20644179 -0.05816844 -0.03957221
-0.20880277 -0.0307886 -0.19155931 0.07065147 -0.18623051 0.10471785 0.08743411 -0.1368551
-0.105054416 0.07135415 -0.09971596 -0.10812335 -0.06601919 0.029047132 0.12948689 -0.21153434
-0.045603365 -0.20545211 -0.20023587 -0.06530444 -0.12123003 -0.066595584 -0.05641581 0.15795845
00000000: 049d 4b3e 44b0 393e 0695 033e 50bb 1c3d
00000010: f01b 693d 2cf8 a53d ae07 0bbe ac19 4a3e
00000020: 7ccf 59be c84a 03bd 1062 873d ec77 913d
00000030: 25ee d0bd 3141 cdbd 2450 a4bd c0d9 8abd
00000040: d4a5 98bd c64e 0a3e e1d3 01be 706d fc3d
00000050: 1060 273e 58f0 0e3d 30f7 f23d 0851 25bd
00000060: d8e5 753d 14ca 973d 9392 56be bc14 03bd
00000070: e081 a23c a248 053e 00c3 e93b 7827 5d3e
00000080: 4804 acbc 505a d13d 3c2f c5bd 37be 4cbe
00000090: b127 56be 6c07 e83d 9725 35be 962d afbd
000000a0: 6ca4 3cbe 10f2 213d c866 413d 3a41 12be
000000b0: a43b 623e 10c2 b3bc 5cdf 2dbe 944d 4a3e
000000c0: 863c bdbd 7bd2 f2bd 3056 063c fb1a 02be
000000d0: 4458 f3bd 12a0 b4bd 64fa db3d fcf8 59bd
000000e0: 9084 a63d 2ca4 8d3d 8c50 28bd fc84 1e3e
000000f0: 4677 b2bd 50ff 55bc 5702 4abe 34d0 c13d
00000100: 8db1 1dbe 4026 f83b d2df 29be d8d2 463e
00000110: 177c 3dbe 8c66 15bd a003 253e c058 09be
00000120: 2c29 63bd 62f1 013e 6832 4dbe 602a 8d3c
00000130: c8a0 f2bc 466f 0c3e 38f9 1d3e 4893 9bbc
00000140: 08c7 46bd 64f6 00be 4c19 8bbd 24f0 263e
00000150: 9099 ec3c a07f 3cbe 64ad 58bd 1439 1c3e
00000160: 642a c13d 84e0 4abe 249e 1a3e b243 003e
00000170: 046f f03d e0bb 3dbc e0eb f03d f0f7 fa3d
00000180: 5cf5 8b3d 0013 61ba b0c1 023c 3881 2b3e
00000190: 007d 5a3d 0660 15be 982f c53d 285d 8dbd
000001a0: 201b 3dbe 70b6 563d a66a 3b3e b08a a23d
000001b0: 68aa c0bd c87a 80bd 9420 413e 40c9 353c
000001c0: c8da f93d e076 1f3d 1073 143c a0b5 2b3c
000001d0: 2605 b4bd 76a2 533e c8a8 483e 9095 6b3d
000001e0: a09b f2bc 9cbb 1d3e 98f5 183e 53c7 e2bd
000001f0: b809 443e 4f42 f9bd acf8 a4bd 1b03 32be
00000200: 40af 753b 848c 903d 4ca7 10be dcb1 01be
00000210: b2b4 063e c0cf f73d f489 223e 9e8d 463e
00000220: 30f0 a43c a0c7 ad3d 7c87 263e 6473 933d
00000230: 08a3 453e 0470 f53d 9038 3f3c 446c fcbd
00000240: 64ca 58be c022 083d 9c99 af3d 2c57 85bd
00000250: 198e 2dbe a064 e1bc 4666 06be 1427 c23d
00000260: 28b2 883d 004b c0bb 34e5 dd3d 1c97 0abe
00000270: 680a 173d b8e4 0b3e d435 3bbe f0a6 3e3e
00000280: feff 1d3e f085 403c 42c3 283e 182b 3a3d
00000290: da1a 02be f45c 523e b554 0bbe a803 24be
000002a0: dc4c acbd 4073 69bc 30ae a13c 6010 15bd
000002b0: 983c 003e 36ea 503e e01f 083d 80cd c23a
000002c0: 6022 e8bb 00d3 7cbc 283f 0bbe 70c0 2a3e
000002d0: a4be c33d 28fe 2c3e 64bc 82bd 5846 33be
000002e0: 30f9 4a3e e8c3 143e 20d3 53bc 0e8f afbd
000002f0: f82b 8e3c aaa4 273e e6b0 a1bd 4249 18be
00000300: e2e6 12be 26b8 5b3e cc1e 2dbe 981c 293d
00000310: 0a1c 513e 2fdf 53be 6632 9abd 0851 643e
00000320: ccf5 fb3d 584d 033d 002d c93a 8f6f 4ebe
00000330: 0637 63be d0a6 b93d 2293 333e 48e1 5bbe
00000340: 14ae 15be b26c babd 50b0 a9bd 26ed 98bd
00000350: 8e6d 2abe d41f da3d e8fe a93d 489d 2c3e
00000360: ec64 54be 5063 663c 5002 d23d 48e8 78bd
00000370: 0004 f83a 305e 413c ec45 8f3d 009a 14be
00000380: ec63 28be 78c1 8d3c a0d0 bcbc 8e4b 093e
00000390: 7630 223e 7a65 533e 0842 6ebd 7816 22bd
000003a0: 65d0 55be 6038 fcbc 2028 44be b8b1 903d
000003b0: 36b3 3ebe 5076 d63d a810 b33d be23 0cbe
000003c0: c526 d7bd 2022 923d e237 ccbd c66f ddbd
000003d0: 1235 87bd 40f4 ed3c 3698 043e 759c 58be
000003e0: 98ca 3abd 0a62 52be a20a 4dbe 56be 85bd
000003f0: 7347 f8bd 4463 88bd 4414 67bd dcbf 213e

mfcc_rec.bias_ih_l0 f4 [80]
0.1281198 -0.13472167 0.004858357 0.004575537 0.20070386 -0.050535668 -0.21332282 -0.14726844
-0.08610703 -0.0727424 0.13219652 0.11720276 -0.074954875 0.0019912273 -0.1865091 -0.02301252
-0.22017395 -0.031031862 -0.13628027 -0.032064993 -0.1793241 -0.071245745 -0.22040525 -0.010266006
-0.19468303 0.08577353 -0.101263106 0.093342036 -0.163417 0.01219745 -0.14387554 -0.063844815
0.012630448 -0.13435422 0.05230376 -0.02797018 0.17566869 -0.0666956 -0.054806024 0.09052035
0.14937808 0.01647091 -0.17142467 0.15869424 0.1883575 -0.13883507 -0.20735276 0.2060781
0.22001448 0.10111572 -0.07585642 0.15076053 -0.11465557 0.21683192 0.18643147 -0.121881455
-0.16197455 0.090409845 -0.046524033 -0.21746011 -0.15876694 0.09361896 -0.030992404 0.20598449
-0.060544476 -0.11928752 -0.19220604 -0.019564006 -0.063264355 -0.051651407 0.104617745 -0.17307854
0.03855797 -0.19492668 -0.21572955 0.25805083 -0.14028564 -0.09412108 0.06524739 -0.026586834
00000000: d631 033e 7af4 09be da32 9f3b 63ee 953b
00000010: 5085 4d3e 7dfe 4ebd 4c71 5abe 8acd 16be
00000020: e258 b0bd f8f9 94bd 865e 073e 0008 f03d
00000030: f181 99bd 407f 023b 3efc 3ebe c184 bcbc
00000040: 4875 61be 8836 febc 0e8d 0bbe 9556 03bd
00000050: bda0 37be 4ae9 91bd eab1 61be c032 28bc
00000060: fd5a 47be 08aa af3d 0863 cfbd 1c2a bf3d
00000070: c956 27be d0d7 473c 1c54 13be 12c1 82bd
00000080: f0ef 4e3c 2794 09be 783c 563d b821 e5bc
00000090: 7ee2 333e b497 88bd 487c 60bd bc62 b93d
000000a0: 91f6 183e 00ee 863c f389 2fbe be80 223e
000000b0: cae0 403e c82a 0ebe 4854 54be 2306 533e
000000c0: 7a4b 613e c215 cf3d 9c5a 9bbd f860 1a3e
000000d0: 8ad0 eabd 3009 5e3e e4e7 3e3e fc9c f9bd
000000e0: a8dc 25be cc28 b93d fc8f 3ebd ddad 5ebe
000000f0: cd93 22be 4cbb bf3d c8e3 fdbc 99ed 523e
00000100: 7cfd 77bd 044d f4bd a9d1 44be b244 a0bc
00000110: be90 81bd 6d90 53bd d441 d63d 803b 31be
00000120: f6ee 1d3d dc9a 47be 35e8 5cbe 3d1f 843e
00000130: 0aa7 0fbe 8ec2 c0bd 6ca0 853d a2cc d9bc

mfcc_rec.bias_hh_l0 f4 [80]
0.19436687 0.17283757 0.090301275 -0.15003759 -0.19219485 -0.09410889 -0.2126728 -0.20581503
-0.0072098076 0.07688667 0.13518414 -0.0038310639 0.12292743 0.1897957 0.12263262 0.12801336
-0.1676831 0.04327652 -0.09442669 -0.046859715 0.08540937 0.02899602 0.2177729 -0.11140367
0.0025277585 -0.2222136 -0.15409091 -0.169137 -0.07496826 -0.0009788424 0.034605682 0.099001735
0.06661549 0.005044937 -0.07373457 0.20191786 0.16528633 -0.12382009 0.19894314 0.019395024
-0.09738606 0.08733809 -0.010071149 0.21552733 0.028656453 0.19030476 -0.21590798 0.14639555
-0.08654523 -0.07889329 -0.10735323 0.084872186 0.06287499 -0.19255961 -0.10131735 -0.2279636
-0.2157012 0.048799485 -0.10323488 -0.11811322 -0.048039373 -0.067183346 -0.19709131 -0.013810107
-0.13537112 -0.14434332 0.11243882 -0.10453124 -0.029860273 0.21697332 -0.20836246 -0.011731059
0.21160947 0.037085075 -0.17614987 0.023601025 -0.025881842 -0.16171935 -0.023884103 -0.24720092
00000000: 1c08 473e 55fc 303e e0ef b83d 74a3 19be
00000010: bace 44be 29bc c0bd e6c6 59be 2dc1 52be
00000020: 4040 ecbb c276 9d3d b66d 0a3e 9612 7bbb
00000030: 60c1 fb3d ce59 423e d026 fb3d ef15 033e
00000040: 1eb5 2bbe b842 313d c862 c1bd f9ef 3fbd
00000050: 1ceb ae3d 1089 ed3c dcff 5e3e 9b27 e4bd
00000060: c0a8 253b f68b 63be 02ca 1dbe 4032 2dbe
00000070: f688 99bd 804c 80ba b0be 0d3d 6cc1 ca3d
00000080: b46d 883d 0050 a53b 2602 97bd 8ec3 4e3e
00000090: d240 293e 6395 fdbd c0b7 4b3e 50e2 9e3c
000000a0: 5872 c7bd 50de b23d 7601 25bc 32b3 5c3e
000000b0: f0c0 ea3c 40df 423e fb16 5dbe b7e8 153e
000000c0: a03e b1bd ce92 a1bd 03dc dbbd 78d1 ad3d
000000d0: 9ac4 803d 592e 45be 797f cfbd 4a6f 69be
000000e0: c6e0 5cbe f8e1 473d cf6c d3bd 58e5 f1bd
000000f0: efc4 44bd 6c97 89bd 4ed2 49be c943 62bc
00000100: ba9e 0abe bcce 13be 5346 e63d 7a14 d6bd
00000110: 889d f4bc 412e 5e3e f85c 55be a133 40bc
00000120: 27b0 583e 85e6 173d a260 34be f056 c13c
00000130: 2806 d4bc c299 25be 98a8 c3bc 3d22 7dbe

fbank_rec.weight_ih_l0 f4 [80, 40]
0.23904371 0.5820952 0.19131377 -0.026906269 -0.005407609 -0.018139228 -0.02398057 0.033526782
-0.05707123 -0.10632365 0.063050315 0.04031711 -0.098839715 0.13113229 0.0025328444 0.28835943
-0.05660825 -0.021062257 0.014807679 -0.042137887 -0.20834233 -0.0055166646 -0.07436046 0.06052779
-0.11744935 0.010132924 -0.13993892 -0.0066715307 -0.006916645 -0.08805543 0.15203653 0.26549956
0.17458774 0.094560735 0.024577836 0.045994572 0.14604554 -0.042747058 0.22190441 -0.04452278
0.26651677 0.041038875 -0.026076308 -0.06523709 0.16892771 -0.0027619188 -0.038302414 0.14594255
-0.1409456 0.121154584 -0.20555753 -0.07124042 0.20566922 0.12959458 0.23629864 -0.188704
-0.33058527 -0.4402508 -0.29008028 -0.23373364 0.12614727 -0.00030017644 0.07473364 0.09110195
0.17174554 -0.21046309 -0.19196193 -0.27655452 -0.30980363 -0.049915828 0.060113214 0.12802593
0.0934385 -0.02658405 -0.16642614 0.003918835 -0.07801727 0.15831766 0.20500034 0.2251712
0.12915088 -0.047942307 0.093125165 -0.09855753 0.30027336 0.16172816 0.033714972 -0.20288752
0.020426298 -0.121154174 -0.14169745 -0.10274753 0.06315693 0.30413994 -0.13011655 0.08745216
-0.14354815 -0.20626272 -0.17579325 0.021272738 -0.16427429 0.07934681 -0.09361981 0.14436539
0.14826354 0.16283832 0.03932922 0.3114531 0.24928643 -0.12764718 0.2810377 -0.14969647
0.2526335 0.30860946 0.27628836 0.34419107 0.27785012 -0.12459752 -0.15695632 0.018671235
0.13689183 0.17920257 0.027091226 -0.104261704 0.0074127726 0.22294511 0.001985108 -9.623009e-05
0.38998187 0.099660635 -0.12816979 0.15055 0.15468803 -0.21824178 0.0021323084 0.14963864
-0.1157915 -0.31068513 -0.28475198 -0.07392038 -0.1799154 -0.37944806 -0.32015535 0.036826875
-0.14412142 -0.43896577 -0.22115947 0.04828201 0.054706477 0.059494115 -0.06060638 -0.07814581
0.2458412 0.25847697 0.24152629 -0.108263604 0.32439587 -0.08733529 0.21026596 0.06292941
0.13816157 0.02472312 -0.014420053 -0.0652752 0.058822785 0.04454892 -0.2607858 0.11159476
0.06307072 -0.05232012 -0.27555433 0.09265508 0.25196534 0.049963504 -0.3337477 -0.2912893
-0.13376223 -0.4837276 0.11196517 -0.26249745 -0.15144892 -0.09914753 0.10710094 -0.20775281
0.012172886 0.11615663 -0.031048974 0.11682406 0.07964161 0.0049939146 -0.008417526 0.154751
0.28246748 0.1736576 0.059656776 0.17065535 0.17876214 -0.005147594 -0.03936899 -0.10077483
0.34666365 -0.029249426 -0.027024034 0.029572114 0.26052448 0.16651256 0.05828017 0.18884447
0.057328697 -0.06794483 -0.047389124 0.11662866 -0.08837879 0.100963145 -0.08126691 -0.17468457
-0.24376792 -0.19130218 -0.3972981 -0.107389264 -0.057350814 0.11340089 -0.021514988 0.05388282
-0.11907146 -0.065355815 -0.08114169 -0.14800477 -0.14427777 -0.10615763 -0.07705669 -0.14213827
-0.04425167 0.35249895 0.2944608 0.22760926 0.26259124 -0.048907112 -0.01734982 -0.103739575
0.3215428 0.40951046 -0.20579812 -0.07035278 0.21946138 -0.05422911 0.036443796 0.13164374
-0.09439744 0.13777912 -0.012317498 -0.05357814 0.069000855 0.23080833 0.16420633 0.1581399
00000000: e0c7 743e 3104 153f c2e7 433e 896a dcbc
00000010: 5032 b1bb b898 94bc e672 c4bc 6153 093d
00000020: 86c3 69bd 37c0 d9bd 8620 813d 8e23 253d
00000030: 7a6c cabd 8b47 063e 14fe 253b d9a3 933e
00000040: 0dde 67bd c18a acbc e89b 723c c798 2cbd
00000050: b157 55be 23c5 b4bb 4c4a 98bd fdeb 773d
00000060: 4989 f0bd 9004 263c 264c 0fbe db9c dabb
00000070: 06a5 e2bb 6856 b4bd 77af 1b3e 8fef 873e
00000080: 21c7 323e 0fa9 c13d 7557 c93c ce64 3c3d
00000090: f68c 153e 8a17 2fbd e93a 633e 855d 36bd
000000a0: e374 883e 6118 283d fb9d d5bc 069b 85bd
000000b0: 63fb 2c3e 4f01 35bb fee2 1cbd f771 153e
000000c0: 0b54 10be e51f f83d ac7d 52be 7fe6 91bd
000000d0: f49a 523e 71b4 043e 45f8 713e 9f3b 41be
000000e0: 7942 a9be 8e68 e1be 6785 94be df57 6fbe
000000f0: c02c 013e 0061 9db9 f30d 993d a993 ba3d
00000100: 10de 2f3e a383 57be ab91 44be 8e98 8dbe
00000110: 959e 9ebe 8a74 4cbd 4639 763d 3b19 033e
00000120: af5c bf3d cbc6 d9bc 9d6b 2abe 9269 803b
00000130: 85c7 9fbd 061e 223e 9ceb 513e 4793 663e
00000140: 2140 043e 275f 44bd 68b8 be3d 88d8 c9bd
00000150: 6ebd 993e 119c 253e b618 0a3d bfc1 4fbe
00000160: 0d55 a73c ae1f f8bd 2319 11be 4c6d d2bd
00000170: 6c58 813d 3bb8 9b3e 463d 05be 1e1a b33d
00000180: 49fe 12be 8936 53be 2503 34be 2a44 ae3c
00000190: 8537 28be 9580 a23d bebb bfbd 85d4 133e
000001a0: 66d2 173e 17bf 263e ad17 213d c876 9f3e
000001b0: f144 7f3e f1b5 02be 2ce4 8f3e 084a 19be
000001c0: 2e59 813e 0f02 9e3e ab75 8d3e d039 b03e
000001d0: 5f42 8e3e fc2c ffbd 28b9 20be 6bf4 983c
000001e0: 5f2d 0c3e e180 373e 6bee dd3c 2987 d5bd
000001f0: d8e6 f23b b94b 643e 9618 023b 23cf c9b8
00000200: b4ab c73e e01a cc3d f13e 03be c729 1a3e
00000210: 8a66 1e3e c67a 5fbe 33be 0b3b df3a 193e
00000220: 1824 edbd 1f12 9fbe 03cb 91be 9163 97bd
00000230: be3b 38be 0447 c2be 67eb a3be c7d7 163d
00000240: 9194 13be 1fc0 e0be a177 62be 5bc3 453d
00000250: e613 603d 1ab0 733d 653e 78bd e90a a0bd
00000260: ccbd 7b3e 1857 843e ab52 773e 4fb9 ddbd
00000270: 3717 a63e d8dc b2bd f64f 573e 22e1 803d
00000280: 3a7a 0d3e 2488 ca3c 1642 6cbc 01af 85bd
00000290: 29f0 703d ee78 363d b785 85be cb8b e43d
000002a0: 392b 813d 9f4d 56bd 7515 8dbe f2c1 bd3d
000002b0: 9a01 813e 88a6 4c3d fbe0 aabe df23 95be
000002c0: f7f8 08be 25ab f7be ff4d e53d 1166 86be
000002d0: 6d15 1bbe dc0d cbbd bd57 db3d 27bd 54be
000002e0: c970 473c 87e3 ed3d 6b5a febc 7441 ef3d
000002f0: 241b a33d fea3 a33b aae9 09bc 0c77 1e3e
00000300: 949f 903e 4cd3 313e aa5a 743d 47c0 2e3e
00000310: 6c0d 373e 26ad a8bb 6141 21bd 0963 cebd
00000320: e67d b13e 7e9c efbc 8261 ddbc 3841 f23c
00000330: 7763 853e 4582 2a3e 30b7 6e3d 7260 413e
00000340: 7fd1 6a3d a926 8bbd 191b 42bd 02db ee3d
00000350: f0ff b4bd c4c5 ce3d 446f a6bd 83e0 32be
00000360: 4c9e 79be b8e4 43be a86a cbbe e7ee dbbd
00000370: b0e8 6abd ba3e e83d 3340 b0bc 3bb4 5c3d
00000380: bddb f3bd 45d9 85bd 9d2d a6bd 908e 17be
00000390: 8dbd 13be 2c69 d9bd e6cf 9dbd b28c 11be
000003a0: 3d41 35bd be7a b43e 91c3 963e 6712 693e
000003b0: 5c72 863e d352 48bd 3621 8ebc 6a75 d4bd
000003c0: 42a1 a43e 5bab d13e bebc 52be 1e15 90bd
000003d0: 7cba 603e 581f 5ebd 1746 153d 9ecd 063e
000003e0: 7253 c1bd f815 0d3e 55cf 49bc c074 5bbd
000003f0: 5250 8d3d 0559 6c3e b425 283e 6def 213e

fbank_rec.weight_hh_l0 f4 [80, 20]
-0.111491285 0.027178794 -0.0058742166 -0.009470046 0.09052339 -0.02961725 -0.06525265 0.11503786
0.1594066 0.19784608 0.014612898 -0.026586995 -0.0633765 -0.16508576 0.1305848 0.14901072
-0.13885793 -0.1778737 -0.0076093376 0.09869492 -0.06253244 -0.08355947 0.13891336 0.1809673
-0.1953744 0.15536544 0.21419051 -0.21221298 -0.0641889 0.1909563 0.04498911 -0.031341597
0.072627306 0.003955409 -0.096018374 -0.0011565983 0.16002026 -0.02195263 -0.097795054 -0.18844157
0.08756551 -0.19156502 0.1992929 0.1409994 0.1279059 0.11677104 -0.043287277 -0.11942928
-0.116480805 0.07528916 0.12364286 -0.08291668 0.026980102 -0.21898 0.07408175 0.06542623
0.15135011 -0.12184847 -0.13615046 0.19873655 0.1978254 0.12816608 -0.21822417 0.06690565
-0.056168467 0.054116398 0.20142558 0.07633349 0.18060383 -0.010423139 -0.08906467 0.15110815
0.21166676 0.016838968 0.22133556 -0.18353538 -0.18290067 -0.11441499 0.01999633 -0.016636893
-0.2203813 0.051285625 -0.13716584 -0.0772412 -0.010202825 0.026194885 -0.04571958 -0.22085582
-0.019065917 -0.2111798 0.11985028 -0.08332081 -0.03491126 0.068376005 -0.09322168 0.20301622
-0.027128056 -0.015812904 0.07196593 0.022821248 -0.18332984 0.06276995 0.09482846 0.14475763
0.19686878 0.10379866 0.011891305 -0.040713698 0.11105281 -0.19522831 -0.093265474 -0.0895503
-0.1760841 -0.061295405 0.17127857 -0.01388213 -0.038220763 -0.00815244 -0.0632627 -0.13672721
-0.13391861 0.05563557 -0.13220719 -0.009665981 -0.21384203 0.07328364 0.1042707 0.056222916
0.13710913 -0.0878683 -0.0034019202 0.07862708 0.08080962 -0.20898792 0.21723914 -0.13774699
0.10386151 0.08013144 0.08347076 -0.20966803 -0.04694131 -0.14057267 0.05547732 0.0020051748
0.19959241 -0.15409043 0.06615433 0.101016074 0.10624066 0.17373219 -0.21834487 -0.11530691
-0.045179114 -0.14123291 0.013057306 -0.17478661 -0.1861489 -0.020918041 0.067884624 0.13858241
-0.22318849 0.0859898 -0.05328779 0.13819969 -0.16671062 -0.16237405 -0.020481735 0.081395715
0.12984607 0.023783714 0.07536268 -0.050821334 -0.2121566 -0.14309013 -0.13081436 -0.19232072
-0.21947429 0.033642113 -0.07754488 0.15633088 -0.117765225 0.035564005 -0.01864633 -0.10378167
-0.088835016 -0.057391107 0.106049 -0.18601651 -0.098985724 0.0048837513 -0.11257922 0.16707489
0.2233786 0.0092167705 0.15578732 -0.12785897 0.0048128814 -0.10845063 -0.21782374 -0.020155653
-0.046546236 -0.110454574 -0.13359028 0.1704565 0.16147006 -0.07231261 -0.057069927 0.18553686
-0.17833519 0.12231016 -0.22277614 0.14874774 -0.17595962 0.03562635 -0.08113073 0.21320501
0.03266275 0.13441798 -0.06477463 0.016562894 0.10405633 0.21925718 0.022211999 -0.028330266
-0.104250126 -0.062940195 0.10350686 0.16705236 -0.1407942 -0.08740105 -0.12333418 -0.0013998151
-0.18397933 0.15260866 0.0964534 0.04686871 -0.1405974 0.080898196 0.09391892 0.043215632
-0.12691662 0.14259347 -0.049377084 -0.00866656 0.13683757 0.07370058 0.043910176 0.118689656
0.06622943 0.097105294 0.002680868 -0.14858642 -0.21270862 0.006196931 0.063672364 -0.15099645
00000000: 8b55 e4bd 10a6 de3c 807c c0bb 4028 1bbc
00000010: 5464 b93d e09f f2bc 2ea3 85bd f898 eb3d
00000020: 7c3b 233e 2a98 4a3e f06a 6f3c f8cc d9bc
00000030: 8acb 81bd 3e0c 29be 06b8 053e 4496 183e
00000040: c630 0ebe 8624 36be c057 f9bb 9020 ca3d
00000050: 0211 80bd 3a21 abbd 4e3f 0e3e 7e4f 393e
00000060: 3a10 48be 1e18 1f3e c254 5b3e 5c4e 59be
00000070: 7875 83bd 0c8a 433e 8046 383d 0c60 00bd
00000080: a0bd 943d 609c 813b 48a5 c4bd 0099 97ba
00000090: 5adc 233e 00d6 b3bc c648 c8bd d4f6 40be
000000a0: 8c55 b33d 9f29 44be 7013 4c3e 2662 103e
000000b0: c4f9 023e a825 ef3d 004e 31bd 5797 f4bd
000000c0: 7d8d eebd 3431 9a3d 7838 fd3d 38d0 a9bd
000000d0: 6005 dd3c 4b3c 60be 2cb8 973d 30fe 853d
000000e0: 86fb 1a3e b18b f9bd 076b 0bbe 9881 4b3e
000000f0: be92 4a3e f83d 033e 2876 5fbe d405 893d
00000100: e810 66bd 28a9 5d3d 8242 4e3e bc54 9c3d
00000110: 36f0 383e d0c5 2abc 8a67 b6bd 18bc 1a3e
00000120: 2cbf 583e e0f1 893c caa5 623e b3f0 3bbe
00000130: 504a 3bbe 6852 eabd 58cf a33c 184a 88bc
00000140: a3ab 61be e010 523d 3475 0cbe a230 9ebd
00000150: c029 27bc a896 d63c 7444 3bbd 0728 62be
00000160: 2030 9cbc 843f 58be 1074 f53d 1aa4 aabd
00000170: 1cff 0ebd b808 8c3d 02eb bebd 7ce3 4f3e
00000180: a83b debc 108a 81bc e062 933d a0f3 ba3c
00000190: d1ba 3bbe 888d 803d 6c35 c23d 583b 143e
000001a0: f897 493e 6494 d43d c0d3 423c 68c3 26bd
000001b0: a86f e33d eee9 47be f801 bfbd 2666 b7bd
000001c0: 644f 34be e410 7bbd a663 2f3e e071 63bc
000001d0: 608d 1cbd d091 05bc e08f 81bd 3802 0cbe
000001e0: f621 09be 20e2 633d 5261 07be 105e 1ebc
000001f0: 68f9 5abe bc15 963d e08b d53d 004a 663d
00000200: 5666 0c3e 4cf4 b3bd c0f2 5ebb 3c07 a13d
00000210: 847f a53d ee00 56be f073 5e3e 8c0d 0dbe
00000220: 58b5 d43d f41b a43d b8f2 aa3d 37b3 56be
00000230: 8845 40bd 48f2 0fbe 303c 633d 4069 033b
00000240: f461 4c3e e2c9 1dbe ec7b 873d 84e1 ce3d
00000250: b494 d93d dae6 313e cc95 5fbe 0726 ecbd
00000260: bc0d 39bd 5c9f 10be 50ee 553c 43fb 32be
00000270: d19d 3ebe 505c abbc 1807 8b3d 8ce8 0d3e
00000280: 868b 64be 6c1b b03d 4c44 5abd 3884 0d3e
00000290: 30b6 2abe 6245 26be 50c9 a7bc ccb2 a63d
000002a0: 5ef6 043e 10d6 c23c c057 9a3d 082a 50bd
000002b0: 943f 59be 3886 12be 33f4 05be b9ef 44be
000002c0: debd 60be 50cc 093d dacf 9ebd 3415 203e
000002d0: e52e f1bd 90ab 113d 30c0 98bc 7c8b d4bd
000002e0: 22ef b5bd f012 6bbd 3830 d93d 1d7b 3ebe
000002f0: 07b9 cabd e007 a03b ef8f e6bd ae15 2b3e
00000300: 5cbd 643e f001 173c b686 1f3e 76ed 02be
00000310: 60b5 9d3b 5d1b debd 300d 5fbe 781d a5bc
00000320: 44a7 3ebd 0236 e2bd e4cb 08be 268c 2e3e
00000330: 6858 253e a218 94bd 28c2 69bd 60fd 3d3e
00000340: 809d 36be c07d fa3d 6e1f 64be 5451 183e
00000350: c22e 34be f0ec 113d de27 a6bd 6a52 5a3e
00000360: 60c9 053d dea4 093e 90a8 84bd e8ae 873c
00000370: 7c1b d53d f484 603e f0f5 b53c e014 e8bc
00000380: 1781 d5bd cae6 80bd 68fb d33d c60f 2b3e
00000390: 5b2c 10be 52ff b2bd a196 fcbd 007a b7ba
000003a0: 1465 3cbe 7245 1c3e 5c89 c53d 68f9 3f3d
000003b0: c4f8 0fbe f4ad a53d 9058 c03d e002 313d
000003c0: 6ef6 01be 0604 123e a03f 4abd 30fe 0dbc
000003d0: 261f 0c3e 54f0 963d 28db 333d 9013 f33d
000003e0: 4ca3 873d 24df c63d 80b1 2f3b 0a27 18be
000003f0: 4ad0 59be a00f cb3b a866 823d d09e 1abe

fbank_rec.bias_ih_l0 f4 [80]
0.53942144 0.39728612 0.50585794 0.21519862 0.6772878 1.0442338 0.5573405 3.3405108
0.7583651 0.8278499 1.0429858 0.5000055 1.8646815 1.0448148 1.2054147 2.8700385
3.2068045 0.20507555 1.4918133 0.7020456 -0.02387093 0.1866236 -0.08824162 0.04325995
-0.1503545 0.10002178 -0.11273918 0.085472256 0.10282254 0.061388254 0.1816825 -0.09876008
0.0063470155 0.12158039 -0.079332784 0.005628422 -0.02535224 0.17647776 -0.014749944 0.19568223
-2.2774644 1.1564854 -0.4444682 1.1189781 0.49015054 1.0394683 -1.7912183 2.1579986
-0.037453987 2.32463 0.17424305 -0.37216824 -1.9925214 -0.42196533 0.45092723 0.6763166
2.2461224 2.3352666 -1.8905064 0.48021218 3.4392393 0.93407273 0.33683148 1.5907694
2.2247596 0.53977925 0.543573 0.6868771 1.9321473 1.6855285 0.89871025 0.93204916
0.5888007 1.0458531 1.0103105 2.193093 0.72478646 1.5272735 0.20301825 1.1228365
00000000: 8617 0a3f 1669 cb3e e87f 013f 075d 5c3e
00000010: bc62 2d3f 74a9 853f dead 0e3f eeca 5540
00000020: 3724 423f f9ed 533f 8f80 853f 5c00 003f
00000030: e2ad ee3f 7ebc 853f 074b 9a3f b6ae 3740
00000040: 493c 4d40 53ff 513e bdf3 be3f 43b9 333f
00000050: f88c c3bc 421a 3f3e 06b8 b4bd 5831 313d
00000060: 88f6 19be 38d8 cc3d cde3 e6bd 140c af3d
00000070: a094 d23d 4072 7b3d fa0a 3a3e ba42 cabd
00000080: a0fa cf3b 24ff f83d 3a79 a2bd a06e b83b
00000090: 80af cfbc 96b6 343e c0a9 71bc ec60 483e
000000a0: fac1 11c0 b707 943f 5691 e3be ad3a 8f3f
000000b0: 03f5 fa3e 4c0d 853f a446 e5bf a61c 0a40
000000c0: 5a69 19bd bdc6 1440 c56c 323e d68c bebe
000000d0: f10a ffbf d70b d8be efdf e63e 1623 2d3f
000000e0: 78c0 0f40 0275 1540 1dfc f1bf 5fde f53e
000000f0: 7f1c 5c40 641f 6f3f 2d75 ac3e 559e cb3f
00000100: 7662 0e40 f92e 0a3f 9a27 0b3f 2dd7 2f3f
00000110: 9a50 f73f 66bf d73f e011 663f c69a 6e3f
00000120: a5bb 163f 84de 853f db51 813f a35b 0c40
00000130: 9b8b 393f b37d c33f 04e4 4f3e 1bb9 8f3f

fbank_rec.bias_hh_l0 f4 [80]
0.70541465 0.73205274 0.5441663 0.21101008 0.4807488 1.070759 0.94136465 3.3516803
0.4977957 0.42099944 0.73411345 0.7280072 1.8085027 1.0855589 1.2311717 2.5900414
3.1606987 0.49957567 1.4356482 0.5137933 0.13221523 0.19654477 0.026730895 -0.06325908
-0.17601162 -0.15358043 -0.037903935 0.121166706 0.14132842 -0.1779203 -0.18733527 0.1536605
0.10207051 -0.029337302 0.06795773 0.018929318 -0.032298177 0.10741079 0.00077059865 0.17469293
-2.1051679 1.3179433 -0.578981 0.9631274 0.82092965 1.2935271 -1.8785546 2.110465
-0.18231052 2.1823528 0.3480666 -0.2569362 -2.2064247 -0.75142205 0.58751345 0.6454973
2.186057 2.2385669 -1.9194478 0.46658632 3.4007328 0.83750486 0.31416628 1.876765
2.165965 0.68941265 0.53555655 0.5087673 2.009577 2.0038967 1.0773854 1.0139543
0.7051638 0.8725008 1.0038117 2.0038092 0.7092785 1.4595495 0.34416163 1.0533788
00000000: 0e96 343f cf67 3b3f 7c4e 0b3f 0713 583e
00000010: b524 f63e a20e 893f 46fd 703f ee81 5640
00000020: 14df fe3e 3d8d d73e dcee 3b3f ae5e 3a3f
00000030: 047d e73f 98f3 8a3f 0997 9d3f 3dc3 2540
00000040: e348 4a40 62c8 ff3e 52c3 b73f f587 033f
00000050: 6e63 073e 0843 493e c0fa da3c fa8d 81bd
00000060: 643c 34be 3044 1dbe 2841 1bbd 4026 f83d
00000070: 66b8 103e bd30 36be d1d4 3fbe 2e59 1d3e
00000080: 580a d13d c854 f0bc 6c2d 8b3d a811 9b3c
00000090: 184b 04bd 30fa db3d 0002 4a3a b4e2 323e
000000a0: 12bb 06c0 5eb2 a83f 1938 14bf 848f 763f
000000b0: 7228 523f 4c92 a53f 7a74 f0bf dc11 0740
000000c0: 9caf 3abe abab 0b40 c935 b23e 248d 83be
000000d0: 1036 0dc0 325d 40bf 4867 163f 503f 253f
000000e0: 5ce8 0b40 ae44 0f40 77b0 f5bf 67e4 ee3e
000000f0: 9ba5 5940 b866 563f 67da a03e d639 f03f
00000100: 2c9f 0a40 597d 303f 3c1a 093f 933e 023f
00000110: e99c 0040 d83f 0040 c4e7 893f 41c9 813f
00000120: 9d85 343f 365c 5f3f e77c 803f 693e 0040
00000130: 4793 353f 85d2 ba3f f435 b03e 1ed5 863f

mfcc_classifier.weight f4 [2, 20]
0.8528672 -0.1999489 0.9140218 -1.6650193 0.06971821 0.6080023 0.15444922 -0.48914546
-0.06624 2.087437 -0.07955587 -0.17763641 2.0601249 0.14521518 -0.14970128 -0.90364146
-2.6215525 -0.11125938 0.12057105 3.2893302 -0.14277044 0.004826815 -0.01912877 0.06283874
0.18562254 -0.028315583 0.034408614 -0.12018386 -0.2180705 -0.18893676 -0.06091556 0.18631011
0.15638152 0.061061997 0.21814024 0.021073205 0.1728371 -0.18384653 0.041002005 -0.018570866
00000000: 8155 5a3f 68bf 4cbe 55fd 693f 5a1f d5bf
00000010: 6cc8 8e3d 0aa6 1b3f f027 1e3e 4671 fabe
00000020: d6a8 87bd 9198 0540 30ee a2bd 52e6 35be
00000030: 16d9 0340 4ab3 143e 4b4b 19be 0c55 67bf
00000040: 84c7 27c0 f5db e3bd f4ed f63d 6384 5240
00000050: 6a32 12be 422a 9e3b f0b3 9cbc 99b1 803d
00000060: d613 3e3e 15f6 e7bc 0cf0 0c3d f522 f6bd
00000070: e04d 5fbe a378 41be 9882 79bd 14c8 3e3e
00000080: 7a22 203e 251c 7a3d 2860 5f3e b7a1 ac3c
00000090: 35fc 303e 4442 3cbe b8f1 273d ee21 98bc

mfcc_classifier.bias f4 [2]
0.83125657 -0.18385369
00000000: 3bcd 543f 2444 3cbe

common_classifier.weight f4 [2, 40]
-0.6835398 0.9963263 -0.7315809 0.7410184 0.9354536 0.7319106 -0.834537 0.9767262
-0.71153826 0.93198013 0.5546308 -0.7621926 -0.5506037 -0.99830866 0.61961466 0.62817156
0.904877 1.0572605 -0.7755583 0.7405022 0.29766503 -0.058900572 0.07184192 -0.7335116
-0.0833975 0.39377645 -0.07031638 -0.39155647 0.14952587 0.7042661 0.013292745 -0.08038855
0.56330895 0.22201075 -0.15375993 -0.04530942 -0.71845037 -0.13786756 0.13948001 0.80057126
-0.06560411 -0.32289153 0.55029494 -0.07162946 -0.12491191 -0.077988744 0.006329684 -0.006380808
0.04616444 -0.115776 -0.2834916 0.30783394 -0.22278161 0.49610114 0.24900673 0.16731404
-0.085162975 -0.122855626 0.22764541 -0.39535543 0.032550197 0.006107423 0.020969618 0.0013508139
-0.14019616 0.10614187 -0.023696894 -0.25089616 0.045685336 -0.12036878 -0.12389916 -0.05336722
-0.20612259 -0.14259197 -0.12690093 -0.33196726 0.20847888 0.12274803 -0.112544745 -0.4620086
00000000: 77fc 2ebf 3e0f 7f3f e348 3bbf 62b3 3d3f
00000010: e379 6f3f 7e5e 3b3f 38a4 55bf ba0a 7a3f
00000020: 5f27 36bf 4096 6e3f 49fc 0d3f 0e1f 43bf
00000030: 5df4 0cbf 2891 7fbf 119f 1e3f dacf 203f
00000040: 05a6 673f 5054 873f fd8a 46bf 8d91 3d3f
00000050: 8d67 983e ba41 71bd db21 933d 6bc7 3bbf
00000060: 4fcc aabd 119d c93e 0902 90bd 177a c8be
00000070: 4f1d 193e c84a 343f d0c9 593c c1a2 a4bd
00000080: 0435 103f c956 633e 3e73 1dbe 5f96 39bd
00000090: 5dec 37bf 272d 0dbe d9d3 0e3e 3df2 4c3f
000000a0: 735b 86bd 0a52 a5be 21e0 0c3f 77b2 92bd
000000b0: d1d1 ffbd 90b8 9fbd 3d69 cf3b 1916 d1bb
000000c0: ed16 3d3d f81b edbd d025 91be 699c 9d3e
000000d0: dd20 64be f800 fe3e 9ffb 7e3e 5f54 2b3e
000000e0: ed69 aebd bb9b fbbd e11b 693e 076c cabe
000000f0: 5b53 053d c720 c83b 7ac8 ab3c cb0d b13a
00000100: 958f 0fbe e960 d93d fd1f c2bc 7675 80be
00000110: 8c20 3b3d e883 f6bd d8be fdbd 9697 5abd
00000120: cd11 53be a103 12be 51f2 01be 9df7 a9be
00000130: 7d7b 553e 5263 fb3d dc7d e6bd 648c ecbe

common_classifier.bias f4 [2]
0.33463997 0.0046297484
00000000: ee55 ab3e 25b5 973b
